…
nd ending at 128 kernels. The model starts by capturing simple and low-level features, and ends with capturing complex and abstract features in the final layer. Starting with a smaller number of filters in the first layer is a common design approach in this context and makes the model more computationally efficient, which is an important factor in this case as the model is not trained on GPU. Starting with a simpler representation of the data also helps to prevent overfitting, especially with limited training data. Table 2:Model Summary of 1D-CNN model 1D-CNN Layer Output Shape Param Conv1D_1 (None, 2560, 32) 1856 MaxPooling1D_1 (None, 1280, 32) 0 Conv1D_2 (None, 1280, 64) 6208 MaxPooling1D_2 (None, 426, 64) 0 Conv1D_3 (None, 426, 128) 24704 MaxPooling1D_3 (None, 213, 128) 0 Flatten_1 (None, 27264) 0 Dense_1 (None, 128) 3.489.920 Dense_2 (None, 1) 129 Total params:3.522.817 Trainable params:3.522.817 Non-trainable params: 0 23 Graduation Thesis Angélique Huige Table 3:Model Summary of 2D-CNN model 2D-CNN Layer Output Shape Param Conv2D_1 (None, 2560, 19, 32) 320 MaxPooling2D_1 (None, 1280, 9, 32) 0 Conv2D_2 (None, 1280, 9, 64) 18.496 MaxPooling2D_2 (None, 640, 4, 64) 0 Conv2D_3 (None, 640, 4, 128) 73.856 MaxPooling2D_3 (None, 320, 2, 128) 0 Flatten_1 (None, 81920) 0 Dense_1 (None, 128) 10.485.888 Dense_2 (None, 1) 129 Total params:10.578.689 Trainable params:10.578.689 Non-trainable params: 0"}
{"chunk_id": "chunk_031", "source_section_id": "4.4", "source_section_heading": "4.4 Model Training", "section_part": 1, "chunk_type": "main_text", "word_count": 273, "text": "4.4 Model Training Adam is the optimization algorithm chosen for the training of the model. This is a standard approach, and its parameters have 
…
