…
ding at 128\nkernels. The model starts by capturing simple and low-level features, and ends with capturing complex and abstract features in the final layer. Starting with a smaller number of filters in the first layer is a common design approach in this context and makes the model more computationally efficient, which is an important factor in this case as the model is not trained on GPU. Starting with a simpler representation of the data also helps to prevent overfitting, especially with limited training data.\nTable 2:Model Summary of 1D-CNN model\n1D-CNN\nLayer Output Shape Param\nConv1D_1 (None, 2560, 32) 1856\nMaxPooling1D_1 (None, 1280, 32) 0\nConv1D_2 (None, 1280, 64) 6208\nMaxPooling1D_2 (None, 426, 64) 0\nConv1D_3 (None, 426, 128) 24704\nMaxPooling1D_3 (None, 213, 128) 0\nFlatten_1 (None, 27264) 0\nDense_1 (None, 128) 3.489.920\nDense_2 (None, 1) 129\nTotal params:3.522.817\nTrainable params:3.522.817\nNon-trainable params: 0\n23\n\nGraduation Thesis Angélique Huige\nTable 3:Model Summary of 2D-CNN model\n2D-CNN\nLayer Output Shape Param\nConv2D_1 (None, 2560, 19, 32) 320\nMaxPooling2D_1 (None, 1280, 9, 32) 0\nConv2D_2 (None, 1280, 9, 64) 18.496\nMaxPooling2D_2 (None, 640, 4, 64) 0\nConv2D_3 (None, 640, 4, 128) 73.856\nMaxPooling2D_3 (None, 320, 2, 128) 0\nFlatten_1 (None, 81920) 0\nDense_1 (None, 128) 10.485.888\nDense_2 (None, 1) 129\nTotal params:10.578.689\nTrainable params:10.578.689\nNon-trainable params: 0\n4.4 Model Training\nAdam is the optimization algorithm chosen for the training of the model. This is a standard approach, and its parameters have not been tweaked. Binary cross-entropy is the chosen loss function, given that the model concerns binary classification and a sigmoid activation function. Besides the loss, 
…
